Snake ML/model/model.pth (torch, 16787 bytes, 4 tensors)

linear1.weight f4 [256, 11]
0	0x3eddbfd5	0.4331042
1	0xbd97c335	-0.0741028
2	0xbf0d6e32	-0.5524627
3	0xbe941df3	-0.289291
4	0xbecd419d	-0.4008912
5	0x3e41c491	0.1892264
6	0x3d2724ea	0.04080669
7	0x3e626297	0.22107922
8	0x3e300c06	0.17192087
9	0xbeca1b25	-0.39473835
10	0xbed4e087	-0.4157755
11	0x3e0c53c5	0.1370383
12	0x3f053cf5	0.5204614
13	0x3f044f03	0.5168306
14	0x3d1358b6	0.035973273
15	0xbe3a25a1	-0.18178417
16	0xbe7220f8	-0.23645389
17	0x3e0a1455	0.13484319
18	0xbe0123bd	-0.1261129
19	0x3d936e54	0.07198778
20	0x3e9dac80	0.3079567
21	0xbe427233	-0.18988876
22	0xbdb3454e	-0.08753453
23	0x3ed2f08b	0.41199145
24	0xbe3b12e1	-0.1826892
25	0x3e90f6ae	0.28313202
26	0x3e1da76e	0.153959
27	0x3e8be3b7	0.2732217
28	0x3e85978b	0.2609218
29	0xbe45b97e	-0.19309041
30	0xbe2cfad2	-0.16892555
31	0xbe990291	-0.2988477
32	0xbec2e9c6	-0.3806898
33	0xbd2f6e53	-0.042829823
34	0x3de9ea98	0.11421698
35	0x3dbc0ca5	0.09182099
36	0xbeb70e2c	-0.35753
37	0xbe6551b8	-0.22394454
38	0xbe8185c7	-0.25297377
39	0xbe8f3747	-0.2797186
40	0x3f0a867a	0.54111445
41	0x3ee08b20	0.43856144
42	0x3ecfdbd9	0.40597418
43	0x3f016bc8	0.50555086
44	0xbe8161e9	-0.25270012
45	0xbc331a08	-0.010931499
46	0xbcdfdf38	-0.027328119
47	0x3e0e9ab4	0.13926202
48	0xbed3479e	-0.41265577
49	0xbdcd9847	-0.1003881
50	0x3e1fb6d5	0.15597089
51	0x3d158d09	0.036511455
52	0xbe4a148b	-0.19734399
53	0x3e517df0	0.20458198
54	0xba110cbe	-0.000553321
55	0xbda55824	-0.08073452
56	0xbd465e20	-0.04842961
57	0x3bf6a780	0.007527292
58	0x3d2279b0	0.03966683
59	0xbe127fe7	-0.14306603
60	0xbe007865	-0.12545927
61	0xbdc2fec8	-0.09521252
62	0xbe956b0b	-0.2918323
63	0xbe958c99	-0.2920883
64	0xbe56f526	-0.20991954
65	0xbbf81a40	-0.0075714886
66	0x3eb5d8e8	0.3551705
67	0xbe3bcbf8	-0.18339527
68	0xbe4da011	-0.20080592
69	0x3e344d97	0.17607723
70	0xbe77c99b	-0.24198
71	0xbe1f1237	-0.15534292
72	0x3e68bbdd	0.22727914
73	0xbeb0c4a4	-0.34525025
74	0xbe9b04f9	-0.3027723
75	0xbe8847ae	-0.26617187
76	0x3e78c149	0.24292482
77	0x3ea47520	0.3212061
78	0x3dff552b	0.124674164
79	0x38ac4530	8.214486e-05
80	0xbb7a54b6	-0.0038197464
81	0xbe245c69	-0.16050877
82	0xbe5900cd	-0.21191712
83	0xbe819cba	-0.25314885
84	0x3e5d71a4	0.21625382
85	0x3ef2fb97	0.47457573
86	0x3e81302d	0.25232068
87	0x3ef1f47c	0.4725684
88	0x3e93ac27	0.2884228
89	0x3eb994f3	0.36246452
90	0xbd9215c7	-0.0713306
91	0xbe7250ee	-0.23663685
92	0xbe031a3d	-0.12802978
93	0x3e4b313f	0.19843005
94	0xbeb57699	-0.35442045
95	0x3e513651	0.20430876
96	0xbeaa94bf	-0.3331661
97	0xbef8f0a0	-0.48621082
98	0x3d803ef4	0.06262007
99	0xbd8d3548	-0.06894928
100	0xbec93620	-0.39299107
101	0xbd9d1359	-0.07669706
102	0xbf14b29a	-0.58085024
103	0xbdbeb873	-0.09312525
104	0xbd41312d	-0.04716604
105	0xbeef26f1	-0.46709397
106	0x3ea5474b	0.32280955
107	0xbc464f87	-0.012103922
108	0xbe745f8f	-0.23864578
109	0x3d7f0dde	0.062269084
110	0x3d9ac32a	0.07556756
111	0x3ea3271e	0.31865782
112	0x3ef00403	0.4687806
113	0xbe55df27	-0.20885907
114	0x3cc3b8a5	0.023891756
115	0x3c056cb4	0.008143593
116	0xbcd0135a	-0.025399853
117	0x3ee3e799	0.44512632
118	0x3e9caa7b	0.30598816
119	0x3e9997dc	0.29998672
120	0x3edf1a6a	0.4357484
121	0x3ebc210c	0.36743963
122	0xbf045315	-0.51689273
123	0x3e13efa3	0.14446883
124	0x3e363435	0.17793353
125	0x3ebd2a6b	0.36946425
126	0x3f1fee7a	0.6247326
127	0x3cf4463d	0.029818648
128	0xbb78dc89	-0.0037973246
129	0xbe619087	-0.22027789
130	0xbef2a0ca	-0.47388297
131	0x3e6021bc	0.21887869
132	0x3da61e3e	0.08111237
133	0x3e96e9cb	0.29475245
134	0x3de7fa8b	0.11327084
135	0xbed661ed	-0.41871586
136	0xbec8ceed	-0.39220372
137	0x3e8adb1e	0.27120298
138	0xbecebef3	-0.40380058
139	0x3e6c1ba0	0.23057413
140	0xbee5fc31	-0.4491897
141	0xbea58af5	-0.32332578
142	0x3e4b33bf	0.19843958
143	0x3e037ed1	0.12841345
144	0x3ee2e425	0.44314685
145	0xbe646ee4	-0.22307926
146	0xbeaccc84	-0.33749783
147	0x3ec4b9fd	0.38423148
148	0xbe1373b9	-0.14399613
149	0x3eb01b55	0.34395853
150	0xbe527966	-0.20554122
151	0x3e139f87	0.14416324
152	0x3e851043	0.2598897
153	0xbe550bcf	-0.20805286
154	0xbd2b5356	-0.041827522
155	0x3e902595	0.28153673
156	0xbdf9d961	-0.12199665
157	0xbe982075	-0.29712263
158	0x3e2f1910	0.17099404
159	0xbf2b6374	-0.6694863
160	0xbbb94169	-0.0056535495
161	0xbecca8e7	-0.39972612
162	0x3e24a79b	0.16079561
163	0xbe9a294e	-0.30109638
164	0xbeb17649	-0.34660557
165	0xbe1697f5	-0.14706405
166	0xbe1a2ff3	-0.15057354
167	0xbc93dd2b	-0.018049797
168	0x3edbaee2	0.42906862
169	0xbf21b7d5	-0.6317113
170	0xbf16021a	-0.58596957
171	0x3e019f7c	0.12658495
172	0x3f01cb0c	0.5070045
173	0xbf0f6ab0	-0.5602217
174	0xbf15cd46	-0.5851635
175	0xbee9d653	-0.4567133
176	0x3d8359a8	0.06413585
177	0x3e32caf4	0.17460233
178	0x3e3853f7	0.1800078
179	0xbeca2fe2	-0.39489657
180	0xbd0f3ccf	-0.0349701
181	0xbdd897c4	-0.10575822
182	0xbeb65e18	-0.35618663
183	0x3f246051	0.6420947
184	0x3eb9af20	0.36266422
185	0x3e83cdb7	0.25742885
186	0x3f1b8b73	0.6075966
187	0xbf0c1e98	-0.5473418
188	0xbd7d4591	-0.06183392
189	0x3ebe4740	0.37163734
190	0x3e0236d7	0.12716232
191	0xbef48dc7	-0.47764418
192	0x3e9a84f2	0.30179554
193	0xbe80ff05	-0.25194564
194	0x3e69e1cc	0.22840041
195	0xbebc2823	-0.36749372
196	0x3db4247b	0.087960206
197	0xbf08e2a8	-0.5347085
198	0xbec40211	-0.38282827
199	0xbd159c55	-0.036526043
200	0x3e787741	0.24264242
201	0xbed7d24d	-0.42152634
202	0xbf261323	-0.6487295
203	0x3ea57da6	0.32322425
204	0x3e3b6634	0.18300706
205	0xbf082bfb	-0.5319211
206	0xbeaab07e	-0.33337778
207	0x3f01ae1c	0.50656295
208	0x3e886a34	0.26643527
209	0x3d53307e	0.051559918
210	0x3da0b80b	0.078476034
211	0x3e58cfd8	0.21173036
212	0x3eac7425	0.3368236
213	0xbe4964d6	-0.19667372
214	0xbdc499fe	-0.09599684
215	0xbd7f590d	-0.062340785
216	0xbf0e3e1a	-0.5556351
217	0xbdc49dee	-0.09600435
218	0xbebf8ae8	-0.37410665
219	0xbe17dab2	-0.1482952
220	0xbea30341	-0.3183842
221	0x3e8005a7	0.25004312
222	0xbd5e7c89	-0.054317985
223	0x3db6a4a7	0.08918124
224	0xbd9e7050	-0.07736266
225	0x3db2b412	0.08725752
226	0xbda0f6a9	-0.07859547
227	0xbe33c0e3	-0.17554049
228	0xbea48f86	-0.3214075
229	0x3d81255a	0.06305952
230	0x3cbd184a	0.023082871
231	0x3da9a9c7	0.082843356
232	0xbd0cc319	-0.034365747
233	0x3dc559a4	0.09636238
234	0xbe0e3912	-0.13888958
235	0xbeb29ab0	-0.34883642
236	0xbc1893b8	-0.009312563
237	0xbdf5bffb	-0.11999508
238	0xbdc6bc02	-0.097038284
239	0xbea987ee	-0.3311152
240	0xbe0bc98f	-0.13651107
241	0xbd352391	-0.044223372
242	0x3dba9480	0.091103554
243	0xbf20dc3e	-0.6283606
244	0x3dd9ef66	0.10641365
245	0xbe6a28de	-0.22867152
246	0x3d8a66fa	0.067579225
247	0xbeaee21d	-0.34156886
248	0x3d91faaa	0.071278885
249	0x3e8496ba	0.25896245
250	0xbeb70014	-0.35742247
251	0xbd9c7ad0	-0.07640612
252	0x3e3bc281	0.18335916
253	0xbe49653d	-0.19667526
254	0x3e37e0a8	0.17956793
255	0xbec6134c	-0.38686597

linear1.bias f4 [256]
0	0x3de569f2	0.11201848
1	0xbd3ac294	-0.04559572
2	0x3f4db913	0.80360526
3	0xbe5de1f1	-0.21668221
4	0x3d6f4a54	0.058420494
5	0xbdc05806	-0.09391789
6	0x3c42cd4d	0.011889768
7	0xbe99cb9f	-0.30038163
8	0xbe774049	-0.24145617
9	0x3dedd67a	0.11613174
10	0xbed05bc7	-0.4069502
11	0xbe591c25	-0.21202143
12	0x3d098f2e	0.033583812
13	0xbe6b4906	-0.22977075
14	0x3d95f437	0.07321971
15	0x3dd14a6c	0.10219273
16	0xbe9cf005	-0.3065187
17	0x3e8e46d1	0.27788404
18	0x3dcaab82	0.09895994
19	0x3d2327ee	0.039833
20	0x3e4980f6	0.19678101
21	0xbe314534	-0.17311555
22	0xbd17d67e	-0.03706979
23	0x3d922f17	0.07137888
24	0x3dc73afb	0.097280465
25	0xbdccd254	-0.100010544
26	0x3d425bcd	0.04745083
27	0xbea6c3a9	-0.32571152
28	0xbe814b64	-0.2525283
29	0x3e722b96	0.23649439
30	0xbd2e7db8	-0.042600363
31	0xbdf3f1c9	-0.11911351
32	0x3e2f489f	0.17117546
33	0xbda083dd	-0.07837651
34	0xbf0751b9	-0.52859074
35	0xbaa98b3e	-0.0012935174
36	0xbe231e57	-0.15929542
37	0xbe7b57bd	-0.24545188
38	0xbe6e0fb5	-0.2324818
39	0xbe2cdb65	-0.16880567
40	0xbea744b8	-0.32669616
41	0xbe944573	-0.28959236
42	0xbe11015c	-0.14160675
43	0xbece7129	-0.4032071
44	0xbe3319fe	-0.17490384
45	0xbdd8bedb	-0.10583278
46	0x3d80e2d3	0.06293263
47	0xbe2f0758	-0.17092645
48	0xbe6646d0	-0.2248795
49	0xbe9a46d3	-0.3013216
50	0xbe62cf06	-0.22149286
51	0xbe21a244	-0.15784556
52	0xbe45b6ab	-0.19307964
53	0xbea71f5f	-0.32641122
54	0xbe96af66	-0.29430693
55	0xbe3cd2a6	-0.18439731
56	0x3c883f7f	0.01663184
57	0xbe5dd253	-0.21662264
58	0x3e10e196	0.14148554
59	0xbdc448d3	-0.095842026
60	0xbea1321d	-0.31483546
61	0xbe12ba16	-0.14328799
62	0xbdc088a7	-0.09401064
63	0xbd3eeb8a	-0.046611346
64	0xbd6ef1f3	-0.05833621
65	0xbea04ebf	-0.31310079
66	0x3e153607	0.14571391
67	0xbe8b5f88	-0.27221322
68	0xbe20db23	-0.15708594
69	0xbe09774f	-0.13424419
70	0xbe55e4b6	-0.20888028
71	0xbe68a83a	-0.22720423
72	0x3d56acf0	0.05241102
73	0xbea529df	-0.32258508
74	0xbe2c6e99	-0.16839065
75	0x3e9314ed	0.28726903
76	0x3d871cdc	0.06597301
77	0xbeb04727	-0.34429285
78	0xbeb4f8ec	-0.35346162
79	0x3ddaaad8	0.10677117
80	0xbe40863c	-0.18801206
81	0xbe308acb	-0.17240445
82	0xbd858c0d	-0.06520853
83	0x3e724dc1	0.23662473
84	0xbde3fc58	-0.11132115
85	0x3e09496a	0.13406911
86	0xbde9ba42	-0.11412479
87	0xbe073902	-0.1320534
88	0xbce0410e	-0.02737477
89	0xbdde23e7	-0.108466916
90	0xbe8b9ea1	-0.27269462
91	0xbe77e7da	-0.24209538
92	0xbdc45416	-0.095863506
93	0xbec19a24	-0.37812912
94	0xbe2d047c	-0.16896242
95	0xbd9a3dae	-0.07531296
96	0x3e90f84a	0.2831443
97	0x3f0c5d96	0.548303
98	0xbe6764e6	-0.22597083
99	0x3da6dc42	0.081474796
100	0xbe9dfb95	-0.30856004
101	0x3d426c6d	0.047466684
102	0x3e9cc568	0.3061936
103	0xbd7cc4f4	-0.061711267
104	0xbe23ae15	-0.15984376
105	0xbe22d166	-0.15900192
106	0xbc8161e0	-0.01579374
107	0xbe873d0b	-0.2641376
108	0xbee330ca	-0.4437316
109	0xbe412107	-0.18860255
110	0xbd28eb8f	-0.04124027
111	0x3ebc0103	0.36719522
112	0xbe0fb9a4	-0.1403566
113	0xbd24de55	-0.040251095
114	0xbe11a4bd	-0.14222999
115	0x3dde0763	0.10841253
116	0xbcd63091	-0.026146205
117	0xbd624a6e	-0.055246763
118	0x3ed8a3ef	0.4231257
119	0xbd3439f5	-0.044000585
120	0xbe192ceb	-0.14958541
121	0x3e923bd4	0.2856127
122	0xbe945297	-0.2896926
123	0xbeb7f150	-0.35926294
124	0x3ef204bc	0.47269237
125	0x3d499eea	0.049223818
126	0xbeb3d92e	-0.35126632
127	0x3e0e7b4e	0.13914225
128	0xbe82c0ea	-0.25537807
129	0xbe276139	-0.16345681
130	0xbe082658	-0.13295877
131	0xbebaa5e8	-0.364547
132	0x3e471aaf	0.19443773
133	0xbe70d9b1	-0.23520543
134	0xbe453a1d	-0.1926045
135	0x3daf19ac	0.085498184
136	0xbe8d0fc8	-0.27551103
137	0xbdd2e0bc	-0.10296771
138	0xbe3ea495	-0.1861747
139	0xbecd53c8	-0.40102983
140	0xbea33665	-0.31877437
141	0x3ea24e0d	0.31700173
142	0x3e3cff79	0.1845683
143	0x3e9087c3	0.28228578
144	0xbe088a27	-0.13333951
145	0xbe73a4f7	-0.23793398
146	0xbe3425b5	-0.17592509
147	0xbd4cffb6	-0.050048552
148	0x3d1b196d	0.037866045
149	0x3e7913fe	0.24324033
150	0x3dd6e505	0.10492901
151	0xbd6ea670	-0.058264196
152	0x3d03d35a	0.032183982
153	0xbe22969f	-0.1587777
154	0xbd6e22a3	-0.0581385
155	0xbeaa8f7f	-0.33312604
156	0xbdca9092	-0.09890856
157	0xbd312bdc	-0.04325472
158	0x3e8439be	0.25825304
159	0xbde6b8cb	-0.11265715
160	0x3c41023a	0.011780316
161	0xbd924f05	-0.07143978
162	0xbea9749a	-0.33096772
163	0x3eb65157	0.35608932
164	0x3e35a6bb	0.17739384
165	0xbdc0860b	-0.09400567
166	0x3df6435b	0.12024566
167	0xbc873478	-0.016504511
168	0xbe51b1f3	-0.20478038
169	0x3c1c1d85	0.009528522
170	0xbe8831ff	-0.26600644
171	0x3e2a0348	0.16602814
172	0x3ebb24a8	0.36551404
173	0x3d50b45e	0.05095326
174	0x3e30abb2	0.17252997
175	0xbe0dd9be	-0.13852593
176	0xbd68d651	-0.056845013
177	0x3ee173e3	0.44033727
178	0xbe4414f6	-0.19148621
179	0xbed78567	-0.42093965
180	0xbe78b582	-0.2428799
181	0x3f873392	1.0562613
182	0xbe712e61	-0.23552848
183	0x3e74bf88	0.23901188
184	0xbe5a401d	-0.2131352
185	0xbdbb2d08	-0.091394484
186	0x3ee15bfa	0.44015485
187	0x3f0ae08f	0.542489
188	0xbe3a99e6	-0.1822277
189	0xbe9a1dc0	-0.30100822
190	0xbed06bff	-0.40707394
191	0xbe5955b2	-0.21224096
192	0xbe96547c	-0.2936133
193	0x3e0076bb	0.12545292
194	0xbf1719e7	-0.590239
195	0x3f24f498	0.6443572
196	0xbd537ccb	-0.051632684
197	0x3eb1f928	0.34760404
198	0xbcd2eef4	-0.025748707
199	0xbd20cb44	-0.03925635
200	0xbe89151b	-0.26773915
201	0x3db71ebd	0.0894141
202	0xbebcf953	-0.3690897
203	0xbe465cc0	-0.19371319
204	0xbe4ecb08	-0.20194638
205	0xbe9c07e1	-0.3047476
206	0xbe27646c	-0.16346902
207	0xbe625dab	-0.22106044
208	0x3d9a92c6	0.07547526
209	0xbda7827e	-0.08179186
210	0xbe857547	-0.26066038
211	0xbc8da384	-0.017289884
212	0xbeec2e4c	-0.46129072
213	0xbec9957a	-0.39371854
214	0x3d9107b1	0.07081545
215	0xbe6377b6	-0.22213635
216	0x3dd37454	0.10324922
217	0x3f06825d	0.5254267
218	0xbd21c7fc	-0.03949736
219	0xbeb057c3	-0.34441957
220	0xbe065ee5	-0.13122137
221	0xbe81f315	-0.2538077
222	0xbe935d22	-0.28781992
223	0x3c5669b6	0.013086727
224	0xbf020571	-0.5078955
225	0xbc959d97	-0.018263621
226	0xbd8c15d4	-0.06840101
227	0xbea53aee	-0.32271522
228	0x3ae8c70f	0.0017759519
229	0xbebdabe2	-0.370452
230	0xbe9cdf26	-0.30639
231	0xbe561978	-0.20908153
232	0xbe60e2d7	-0.21961533
233	0xbedd5b7b	-0.43233857
234	0x3f03f262	0.5154172
235	0xbec93f67	-0.39306185
236	0x3e210625	0.15725
237	0xbdf030ec	-0.11728081
238	0xbcb94462	-0.022615615
239	0x3eb19a85	0.34688202
240	0x3e778c97	0.24174725
241	0xbd166562	-0.03671778
242	0xbe329b70	-0.17442107
243	0xbdb8d2fc	-0.09024617
244	0xbe32803a	-0.17431727
245	0xbd4cdd70	-0.050015867
246	0xbe8fd3fb	-0.28091416
247	0x3ecbabf9	0.39779642
248	0xbe5d753e	-0.21626756
249	0xbe46bb19	-0.1940731
250	0xbd938238	-0.07202572
251	0x3e9867a5	0.29766575
252	0x3e735622	0.23763326
253	0x3ed2a8e7	0.41144487
254	0xbe59fa0d	-0.21286793
255	0x3d635d45	0.05550887

linear2.weight f4 [3, 256]
0	0x3d055601	0.032552723
1	0xbd487695	-0.048941214
2	0x3e8fab9d	0.28060618
3	0xbe7dd29b	-0.24787371
4	0x3d5a3b82	0.053279407
5	0x3cb40298	0.021973893
6	0x3e134452	0.14381531
7	0xbe739b3d	-0.23789687
8	0xbd836a09	-0.06416709
9	0xbe13dbb2	-0.14439276
10	0xbe1af15a	-0.15131131
11	0xbe968945	-0.29401603
12	0xbdf67aa6	-0.12035112
13	0xbc51fb68	-0.012816288
14	0x3e393774	0.1808756
15	0x3f15a79c	0.58458877
16	0xbe96cc6e	-0.29452842
17	0x3e8eed7a	0.27915555
18	0x3edc767b	0.43059143
19	0xbde32cc5	-0.110925235
20	0x3d13b85a	0.036064483
21	0x3d879a8f	0.066212766
22	0xbba25704	-0.0049542207
23	0x3eb64923	0.35602674
24	0x3e443a98	0.19162977
25	0xbd5c2c82	-0.053753383
26	0x3f0c74dc	0.54865813
27	0x3af4aefe	0.0018667874
28	0xbcec8407	-0.02887155
29	0x3e889d0f	0.26682326
30	0x3b7a4259	0.003818652
31	0xbd473480	-0.048634052
32	0x3ead1d55	0.3381144
33	0x3ee10a29	0.43953064
34	0xbedf480b	-0.43609652
35	0xbe830c40	-0.25595284
36	0xbf2f291c	-0.684221
37	0xbeea5636	-0.457689
38	0xbe3b3e2e	-0.18285438
39	0x3e9d681b	0.3074349
40	0xbd26299a	-0.040567018
41	0x3d004c60	0.031322837
42	0xbe524451	-0.20533873
43	0x3bacb127	0.0052701416
44	0xbe99a287	-0.3000681
45	0xbe08f191	-0.133734
46	0x3eb802b3	0.3593956
47	0xbe3b7941	-0.18307973
48	0x3aea2668	0.0017864229
49	0xbbdc2cd9	-0.0067192134
50	0xbeec589d	-0.46161357
51	0x3db3be4c	0.087765306
52	0xbea8fc29	-0.33004883
53	0x3c6887a3	0.014192495
54	0xbbd6edcd	-0.00655911
55	0xbd50ba42	-0.05095888
56	0x3d5270ca	0.051377095
57	0xbd626cd4	-0.055279568
58	0x3ef1ead9	0.47249487
59	0x3bd12c5c	0.006383462
60	0xbdabc41c	-0.08387014
61	0x3d4aeada	0.04954038
62	0xbf1555e5	-0.5833419
63	0xbe112b29	-0.1417662
64	0xbd2be6ef	-0.041968282
65	0xbcbe6044	-0.023239262
66	0x3e948773	0.2900959
67	0xbea3ad90	-0.31968355
68	0xbd0b4c85	-0.03400852
69	0xbe10ac0a	-0.14128128
70	0xbcbb9378	-0.022897467
71	0x3c2ac4ef	0.010422929
72	0xbf009657	-0.502294
73	0xbd24ca2b	-0.040231865
74	0xbcaabe40	-0.020842671
75	0x3eaa67b3	0.3328224
76	0x3ed44004	0.4145509
77	0x3d967539	0.07346577
78	0x3cd74081	0.026275875
79	0x3eba1c9b	0.3634995
80	0xbd9204cd	-0.07129822
81	0xbe36d684	-0.17855269
82	0xbd316ebc	-0.043318495
83	0x3da28d9d	0.07937167
84	0xbf42839c	-0.7598207
85	0x3ec8c30b	0.39211306
86	0x3c88eee3	0.016715473
87	0xbe9a1078	-0.3009069
88	0xbb94b09c	-0.004537655
89	0xbd54e392	-0.05197484
90	0xbdbb0840	-0.09132433
91	0xbd6dda2e	-0.0580694
92	0xbd820294	-0.06348148
93	0xbd4bbdd8	-0.049741596
94	0xbdc3b796	-0.095565006
95	0x3e9f7e90	0.31151247
96	0x3e00eb6e	0.1258981
97	0x3e6641b3	0.22486
98	0x3d95b508	0.073099196
99	0x3e8ca817	0.27471992
100	0xbdc3b85d	-0.09556649
101	0xbe26229f	-0.16224144
102	0x3f32f46c	0.6990421
103	0xbef6d291	-0.48207524
104	0xbeee9f9d	-0.4660615
105	0x3d7db9b2	0.06194467
106	0x3ce1f37e	0.027581926
107	0xbe97960c	-0.29606664
108	0xbe585664	-0.21126705
109	0x3c61686a	0.013757804
110	0x3de32527	0.110910706
111	0x3e891726	0.26775473
112	0x3cdbe49f	0.026842413
113	0x3cdf49cb	0.027256867
114	0xbd4b93d6	-0.049701534
115	0xbe219d98	-0.15782773
116	0xbf45b524	-0.77229524
117	0x3e20eb3f	0.1571474
118	0x3e9bfbf3	0.3046566
119	0x3c62b5a1	0.013837249
120	0xbf061dae	-0.5238904
121	0x3ec1df08	0.37865472
122	0xbd9f16ed	-0.077680446
123	0xbc0aa7cd	-0.008462858
124	0x3e3596f8	0.17733371
125	0x3d883d0f	0.06652271
126	0x3ca266a1	0.019824328
127	0xbe1053bc	-0.14094442
128	0xbf0f88f3	-0.5606834
129	0x3ce4f2b5	0.027947763
130	0xbd16a78e	-0.036780886
131	0xbe9eba86	-0.3100168
132	0x3e120610	0.14260125
133	0xbf1220cc	-0.57081294
134	0x3d338ce7	0.043835547
135	0x3e04f335	0.12983401
136	0xbe40c8b5	-0.18826564
137	0xbc3c4f22	-0.011493476
138	0x3e92dffd	0.28686514
139	0xbca261cd	-0.019822026
140	0xbd5a812a	-0.053345837
141	0x3e62921c	0.22126049
142	0xbe89fcab	-0.26950583
143	0x3df9865f	0.121838324
144	0x3ca7eff4	0.02050016
145	0xbda93336	-0.08261721
146	0xbf1762b0	-0.5913496
147	0xbe5404cd	-0.20704956
148	0x3e35282e	0.17691109
149	0x3e81c2d5	0.25343958
150	0x3e1296bd	0.14315315
151	0x3d3952f4	0.045245126
152	0x3d8ff60c	0.070293516
153	0xbed12ae8	-0.40853047
154	0xbe2ba16d	-0.16760798
155	0xbd74ef22	-0.059798367
156	0x3d994080	0.074830055
157	0xbe9a9b69	-0.30196694
158	0x3ed24c20	0.41073704
159	0xbeb01965	-0.34394374
160	0xbdcdf58f	-0.10056602
161	0xbe80e491	-0.25174382
162	0x3da129ad	0.07869277
163	0x3e9430ea	0.28943568
164	0x3cd410a3	0.02588684
165	0xbf041b00	-0.516037
166	0x3d54605b	0.051849704
167	0xbc05d36f	-0.0081680855
168	0xbd351b31	-0.044215385
169	0xbce3694f	-0.027760176
170	0xbee853cc	-0.45376432
171	0x3f1b37f9	0.6063228
172	0x3e19063a	0.14943781
173	0x3de7af4d	0.11312733
174	0xbeb6a83b	-0.35675225
175	0xbd8c9be5	-0.06865672
176	0x3e51f372	0.20503023
177	0x3ea16ff6	0.31530732
178	0xbd51b1ba	-0.051194884
179	0xbdd7057a	-0.104990914
180	0xbed1b583	-0.40958795
181	0x3e4d69cf	0.20059894
182	0x3d41d6ab	0.047323864
183	0x3e74e6b4	0.23916131
184	0xbdd7d286	-0.10538201
185	0xbd7a0576	-0.061040364
186	0x3df07fa2	0.11743094
187	0x3e65f49c	0.22456592
188	0x3e5d4e60	0.21611929
189	0x3d5044be	0.050846808
190	0x3e8693d5	0.26284662
191	0xbcb4a530	-0.022051424
192	0xbcef3b0e	-0.029202964
193	0xbd80b776	-0.062849924
194	0xbe9fe77f	-0.31231305
195	0x3f071633	0.5276825
196	0xbd6ab55a	-0.057301857
197	0x3e8bd93c	0.27314174
198	0xbcf4f52e	-0.029902067
199	0xbda47409	-0.080299444
200	0xbc61df15	-0.013786097
201	0x3e494614	0.19655639
202	0xbe95a3cc	-0.2922653
203	0xbe05ea61	-0.1307769
204	0xbdc7f24c	-0.09763011
205	0xbea24360	-0.31692028
206	0x3cf59f84	0.02998329
207	0xbf44b4bf	-0.76838297
208	0x3f31b422	0.69415486
209	0x3eba2c77	0.3636205
210	0xbe19130e	-0.14948675
211	0xbe10e9c6	-0.14151677
212	0xbc176cb3	-0.0092422245
213	0xbcf23f0e	-0.029571082
214	0x3ed2cd93	0.41172466
215	0x3d1aa024	0.03775038
216	0xbeb11d73	-0.3459278
217	0x3efd66f5	0.49492612
218	0xbe84d737	-0.25945446
219	0x3d6a1544	0.057149187
220	0xbe4efef1	-0.2021444
221	0xbd8354fc	-0.06412694
222	0xbd924b95	-0.071433224
223	0xbc11f252	-0.008907871
224	0xbecc6912	-0.39923912
225	0xbd64fa44	-0.055902734
226	0x3e0e5e08	0.13903058
227	0xbe36f313	-0.17866163
228	0x3e89ba00	0.2689972
229	0xbe84e484	-0.25955594
230	0x3ae68ac8	0.0017588967
231	0x3ba08c0b	0.004899507
232	0xbca1dfa5	-0.019759962
233	0xbe1e8ec2	-0.15484145
234	0x3e9a7dde	0.30174154
235	0xbd38a0e1	-0.0450753
236	0x3bd1b85d	0.0064001516
237	0xbd7b0d1f	-0.06129181
238	0xbe1d3a28	-0.15354216
239	0x3ee56e9f	0.4481096
240	0x3d7962fd	0.06088542
241	0xbea2a5af	-0.31767032
242	0x3d30327c	0.043016896
243	0x3dd050f0	0.101716876
244	0xbd34e334	-0.04416199
245	0xbe52aa87	-0.20572864
246	0xbd93fb58	-0.072256744
247	0x3ec9eaa8	0.3943684
248	0xbe5e10be	-0.21686074
249	0x3cd7947a	0.026315916
250	0xbebcd489	-0.368809
251	0x3e895e86	0.26829928
252	0x3ed20e08	0.4102633
253	0x3ede6ac2	0.43440825
254	0xbe900727	-0.28130457
255	0xbe17a092	-0.14807346

linear2.bias f4 [3]
0	0x3e87f639	0.2655504
1	0xbcf17e4f	-0.029479174
2	0x3cc44edf	0.02396339
